…
      "name": "aM-lact2MMW",
      "state": "RUNNING",
      "partition": "h200_courant",
      "nodes": "gh122",
      "gpus": "1",
      "elapsed": "15:49",
      "time_limit": "2:30:00",
      "submit_time": "2026-03-17T12:55:12",
      "gpu_avg_util": 88.0,
      "gpu_current": [
        {
          "util": 91.0,
          "mem_util": 39.0,
          "mem_used": 89169.0,
          "mem_total": 143771.0
        }
      ],
      "log_tail": "[rank0]:      (0-20): 21 x LaCTBlock(\n[rank0]:        (attn_norm): RMSNorm(1024, eps=1e-06)\n[rank0]:        (attn): LaCTSWIGLULayer(\n[rank0]:          (qkv): Linear(in_features=1024, out_features=3072, bias=False)\n[rank0]:          (o_proj): Linear(in_features=1024, out_features=1024, bias=False)\n[rank0]:          (rotary): RotaryEmbedding(dim=128, base=1000000.0, interleaved=False, pos_idx_in_fp32=True)\n[rank0]:          (w0): LowRankFastWeight()\n[rank0]:          (w2): LowRankFastWeight()\n[rank0]:          (lr_proj): Linear(in_features=1024, out_features=24, bias=True)\n[rank0]:          (reg_lr_proj): Linear(in_features=1024, out_features=24, bias=True)\n[rank0]:          (ttt_scale_proj): Linear(in_features=1024, out_features=8, bias=True)\n[rank0]:          (ttt_norm): RMSNorm(128, eps=1e-05)\n[rank0]:          (momentum_proj): Sequential(\n[rank0]:            (0): Linear(in_features=1024, out_features=8, bias=True)\n[rank0]:            (1): Sigmoid()\n[rank0]:          )\n[rank0]:        )\n[rank0]:        (mlp_norm): RMSNorm(1024, eps=1e-06)\n[rank0]:        (mlp): GatedMLP(\n[rank0]:          (gate_proj): Linear(in_features=1024, out_features=2816, bias=False)\n[rank0]:          (up_proj): Linear(in_features=1024, out_features=2816, bias=False)\n[rank0]:          (down_proj): Linear(in_features=2816, out_features=1024, bias=False)\n[rank0]:          (swiglu_linear): SwiGLULinear()\n[rank0]:        )\n[rank0]:      )\n[rank0]:    )\n[rank0]:    (norm): RMSNorm(1024, eps=1e-06)\n[rank0]:  )\n[rank0]:  (lm_head): Linear(in_features=1024, out_features=32000, bias=False)\n[rank0]:)\u001b[39m\n[rank0]:\n[rank0]:[titan] 2026-03-17 13:04:03,343 - root - WARNING - num_heads not found in model_config, defaulting to 1. \n[rank0]:[titan] 2026-03-17 13:04:03,344 - root - INFO - Applied selective activation checkpointing to the model\n[rank0]:[titan] 2026-03-17 13:04:03,370 - root - INFO - Compiling each block with torch.co
…
          7.022774,
          6.184938,
          6.539716
        ],
        "step": 50
      }
    },
    {
      "job_id": "4417758",
      "name": "aM-lact2MMW",
      "state": "RUNNING",
      "partition": "h200_courant",
      "nodes": "gh114",
      "gpus": "1",
      "elapsed": "22:02",
      "time_limit": "2:30:00",
      "submit_time": "2026-03-17T12:55:11",
      "gpu_avg_util": 71.8,
      "gpu_current": [
        {
          "util": 77.0,
          "mem_util": 32.0,
          "mem_used": 89169.0,
          "mem_total": 143771.0
        }
      ],
      "log_tail": "[rank0]:          (reg_lr_proj): Linear(in_features=1024, out_features=24, bias=True)\n[rank0]:          (ttt_scale_proj): Linear(in_features=1024, out_features=8, bias=True)\n[rank0]:          (ttt_norm): RMSNorm(128, eps=1e-05)\n[rank0]:          (momentum_proj): Sequential(\n[rank0]:            (0): Linear(in_features=1024, out_features=8, bias=True)\n[rank0]:            (1): Sigmoid()\n[rank0]:          )\n[rank0]:        )\n[rank0]:        (mlp_norm): RMSNorm(1024, eps=1e-06)\n[rank0]:        (mlp): GatedMLP(\n[rank0]:          (gate_proj): Linear(in_features=1024, out_features=2816, bias=False)\n[rank0]:          (up_proj): Linear(in_features=1024, out_features=2816, bias=False)\n[rank0]:          (down_proj): Linear(in_features=2816, out_features=1024, bias=False)\n[rank0]:          (swiglu_linear): SwiGLULinear()\n[rank0]:        )\n[rank0]:      )\n[rank0]:    )\n[rank0]:    (norm): RMSNorm(1024, eps=1e-06)\n[rank0]:  )\n[rank0]:  (lm_head): Linear(in_features=1024, out_features=32000, bias=False)\n[rank0]:)\u001b[39m\n[rank0]:\n[rank0]:[titan] 2026-03-17 12:57:34,360 - root - WARNING - num_heads not found in model_config, defaulting to 1. \n[rank0]:[titan] 2026-03-17 12:57:34,360 - root - INFO - Applied selective activation checkpointing to the model\n[rank0]:[titan] 2026-03-17 12:57:34,387 - root - INFO - Compiling each block with torch.co
…
          9.247326,
          8.662781,
          7.817639
        ],
        "step": 90
      }
    },
    {
      "job_id": "4417759",
      "name": "aM-lact2MMW",
      "state": "RUNNING",
      "partition": "h200_courant",
      "nodes": "gh127",
      "gpus": "1",
      "elapsed": "22:02",
      "time_limit": "2:30:00",
      "submit_time": "2026-03-17T12:55:11",
      "gpu_avg_util": 71.2,
      "gpu_current": [
        {
          "util": 90.0,
          "mem_util": 39.0,
          "mem_used": 89171.0,
          "mem_total": 143771.0
        }
      ],
      "log_tail": "[rank0]:          (reg_lr_proj): Linear(in_features=1024, out_features=24, bias=True)\n[rank0]:          (ttt_scale_proj): Linear(in_features=1024, out_features=8, bias=True)\n[rank0]:          (ttt_norm): RMSNorm(128, eps=1e-05)\n[rank0]:          (momentum_proj): Sequential(\n[rank0]:            (0): Linear(in_features=1024, out_features=8, bias=True)\n[rank0]:            (1): Sigmoid()\n[rank0]:          )\n[rank0]:        )\n[rank0]:        (mlp_norm): RMSNorm(1024, eps=1e-06)\n[rank0]:        (mlp): GatedMLP(\n[rank0]:          (gate_proj): Linear(in_features=1024, out_features=2816, bias=False)\n[rank0]:          (up_proj): Linear(in_features=1024, out_features=2816, bias=False)\n[rank0]:          (down_proj): Linear(in_features=2816, out_features=1024, bias=False)\n[rank0]:          (swiglu_linear): SwiGLULinear()\n[rank0]:        )\n[rank0]:      )\n[rank0]:    )\n[rank0]:    (norm): RMSNorm(1024, eps=1e-06)\n[rank0]:  )\n[rank0]:  (lm_head): Linear(in_features=1024, out_features=32000, bias=False)\n[rank0]:)\u001b[39m\n[rank0]:\n[rank0]:[titan] 2026-03-17 12:57:15,495 - root - WARNING - num_heads not found in model_config, defaulting to 1. \n[rank0]:[titan] 2026-03-17 12:57:15,495 - root - INFO - Applied selective activation checkpointing to the model\n[rank0]:[titan] 2026-03-17 12:57:15,521 - root - INFO - Compiling each block with torch.co
…
          7.313468,
          6.758018,
          6.141173
        ],
        "step": 90
      }
    },
    {
      "job_id": "4417760",
      "name": "aM-lact2MMW",
      "state": "RUNNING",
      "partition": "h200_courant",
      "nodes": "gh130",
      "gpus": "1",
      "elapsed": "22:02",
      "time_limit": "2:30:00",
      "submit_time": "2026-03-17T12:55:12",
      "gpu_avg_util": 69.8,
      "gpu_current": [
        {
          "util": 93.0,
          "mem_util": 40.0,
          "mem_used": 89171.0,
          "mem_total": 143771.0
        }
      ],
      "log_tail": "[rank0]:          (reg_lr_proj): Linear(in_features=1024, out_features=24, bias=True)\n[rank0]:          (ttt_scale_proj): Linear(in_features=1024, out_features=8, bias=True)\n[rank0]:          (ttt_norm): RMSNorm(128, eps=1e-05)\n[rank0]:          (momentum_proj): Sequential(\n[rank0]:            (0): Linear(in_features=1024, out_features=8, bias=True)\n[rank0]:            (1): Sigmoid()\n[rank0]:          )\n[rank0]:        )\n[rank0]:        (mlp_norm): RMSNorm(1024, eps=1e-06)\n[rank0]:        (mlp): GatedMLP(\n[rank0]:          (gate_proj): Linear(in_features=1024, out_features=2816, bias=False)\n[rank0]:          (up_proj): Linear(in_features=1024, out_features=2816, bias=False)\n[rank0]:          (down_proj): Linear(in_features=2816, out_features=1024, bias=False)\n[rank0]:          (swiglu_linear): SwiGLULinear()\n[rank0]:        )\n[rank0]:      )\n[rank0]:    )\n[rank0]:    (norm): RMSNorm(1024, eps=1e-06)\n[rank0]:  )\n[rank0]:  (lm_head): Linear(in_features=1024, out_features=32000, bias=False)\n[rank0]:)\u001b[39m\n[rank0]:\n[rank0]:[titan] 2026-03-17 12:57:06,428 - root - WARNING - num_heads not found in model_config, defaulting to 1. \n[rank0]:[titan] 2026-03-17 12:57:06,428 - root - INFO - Applied selective activation checkpointing to the model\n[rank0]:[titan] 2026-03-17 12:57:06,454 - root - INFO - Compiling each block with torch.co
…
