…
se_gate\": false,\n[rank0]:  \"use_l2warp\": false,\n[rank0]:  \"use_short_conv\": false,\n[rank0]:  \"vocab_size\": 32000\n[rank0]:}\n[rank0]:\u001b[39m\n[rank0]:/scratch/sl12886/ttt/lact2/lib/python3.12/site-packages/fla/layers/gated_deltanet.py:193: UserWarning: ShortConvolution is crucial to the performance. Do not turn it off, i.e., setting `use_short_conv=False` unless you know what you are doing.\n[rank0]:  warnings.warn(\n[rank0]:[titan] 2026-03-18 15:10:22,331 - root - INFO - \u001b[34m\n[rank0]:GatedDeltaNetForCausalLM(\n[rank0]:  (model): GatedDeltaNetModel(\n[rank0]:    (embeddings): Embedding(32000, 768)\n[rank0]:    (layers): ModuleList(\n[rank0]:      (0-11): 12 x GatedDeltaNetBlock(\n[rank0]:        (attn_norm): RMSNorm(768, eps=1e-06)\n[rank0]:        (attn): GatedDeltaNet(\n[rank0]:          (q_proj): Linear(in_features=768, out_features=768, bias=False)\n[rank0]:          (k_proj): Linear(in_features=768, out_features=768, bias=False)\n[rank0]:          (v_proj): Linear(in_features=768, out_features=768, bias=False)\n[rank0]:          (a_proj): Linear(in_features=768, out_features=12, bias=False)\n[rank0]:          (b_proj): Linear(in_features=768, out_features=12, bias=False)\n[rank0]:          (o_norm): RMSNorm(64, eps=1e-06)\n[rank0]:          (o_proj): Linear(in_features=768, out_features=768, bias=False)\n[rank0]:        )\n[rank0]:        (mlp_norm): RMSNorm(768, eps=1e-06)\n[rank0]:        (mlp): GatedMLP(\n[rank0]:          (gate_proj): Linear(in_features=768, out_features=2048, bias=False)\n[rank0]:          (up_proj): Linear(in_features=768, out_features=2048, bias=False)\n[rank0]:          (down_proj): Linear(in_features=2048, out_features=768, bias=False)\n[rank0]:          (swiglu_linear): SwiGLULinear()\n[rank0]:        )\n[rank0]:      )\n[rank0]:    )\n[rank0]:    (norm): RMSNorm(768, eps=1e-06)\n[rank0]:  )\n[rank0]:  (lm_head): Linear(in_features=768, out_features=32000, bias=False)\n[rank0]:)\u001b[39m\n[rank0]:\n[rank0]:[titan] 2026-03-18 15:10:22,332 - root - INFO - Applied selective activation checkpointing to the model\n[rank0]:[titan] 2026-03-18 15:10:22,352 - root - INFO - Compiling each block with torch.compile\n[rank0]:[titan] 2026-03-18 15:10:22,352 - root - INFO - Compiling the embedding, norm, and lm_head layers wit
…
