…
      "job_id": "4470690",
      "name": "aS-lact2MMW",
      "state": "RUNNING",
      "partition": "h200_cds",
      "nodes": "gh120",
      "gpus": "1",
      "elapsed": "5:35",
      "time_limit": "5:30:00",
      "submit_time": "2026-03-18T00:24:22",
      "gpu_avg_util": 0.0,
      "gpu_current": [
        {
          "util": 0.0,
          "mem_util": 0.0,
          "mem_used": 4.0,
          "mem_total": 143771.0
        }
      ],
      "log_tail": "[rank0]:      (0-11): 12 x LaCTBlock(\n[rank0]:        (attn_norm): RMSNorm(768, eps=1e-06)\n[rank0]:        (attn): LaCTSWIGLULayer(\n[rank0]:          (qkv): Linear(in_features=768, out_features=2304, bias=False)\n[rank0]:          (o_proj): Linear(in_features=768, out_features=768, bias=False)\n[rank0]:          (rotary): RotaryEmbedding(dim=64, base=1000000.0, interleaved=False, pos_idx_in_fp32=True)\n[rank0]:          (w0): LowRankFastWeight()\n[rank0]:          (w2): LowRankFastWeight()\n[rank0]:          (lr_proj): Linear(in_features=768, out_features=36, bias=True)\n[rank0]:          (reg_lr_proj): Linear(in_features=768, out_features=36, bias=True)\n[rank0]:          (ttt_scale_proj): Linear(in_features=768, out_features=12, bias=True)\n[rank0]:          (ttt_norm): RMSNorm(64, eps=1e-05)\n[rank0]:          (momentum_proj): Sequential(\n[rank0]:            (0): Linear(in_features=768, out_features=12, bias=True)\n[rank0]:            (1): Sigmoid()\n[rank0]:          )\n[rank0]:        )\n[rank0]:        (mlp_norm): RMSNorm(768, eps=1e-06)\n[rank0]:        (mlp): GatedMLP(\n[rank0]:          (gate_proj): Linear(in_features=768, out_features=2048, bias=False)\n[rank0]:          (up_proj): Linear(in_features=768, out_features=2048, bias=False)\n[rank0]:          (down_proj): Linear(in_features=2048, out_features=768, bias=False)\n[rank0]:          (swiglu_linear): SwiGLULinear()\n[rank0]:        )\n[rank0]:      )\n[rank0]:    )\n[rank0]:    (norm): RMSNorm(768, eps=1e-06)\n[rank0]:  )\n[rank0]:  (lm_head): Linear(in_features=768, out_features=32000, bias=False)\n[rank0]:)\u001b[39m\n[rank0]:\n[rank0]:[titan] 2026-03-18 00:39:49,710 - root - WARNING - num_heads not found in model_config, defaulting to 1. \n[rank0]:[titan] 2026-03-18 00:39:49,710 - root - INFO - Applied selective activation checkpointing to the model\n[rank0]:[titan] 2026-03-18 00:39:49,733 - root - INFO - Compiling each block with torch.com
…
itan] 2026-03-18 00:42:33,324 - custom_models.lact_model.modeling_lact - INFO - in PreTrainedModel initialize fast weights for LaCTSWIGLULayer\n[rank0]:[titan] 2026-03-18 00:42:33,327 - custom_models.lact_model.modeling_lact - INFO - in PreTrainedModel initialize fast weights for LaCTSWIGLULayer\n[rank0]:[titan] 2026-03-18 00:42:33,330 - custom_models.lact_model.modeling_lact - INFO - in PreTrainedModel initialize fast weights for LaCTSWIGLULayer\n[rank0]:[titan] 2026-03-18 00:42:33,334 - root - INFO - \u001b[34m\n[rank0]:LaCTForCausalLM(\n[rank0]:  (model): LaCTModel(\n[rank0]:    (embeddings): Embedding(32000, 768)\n[rank0]:    (layers): ModuleList(\n[rank0]:      (0-11): 12 x LaCTBlock(\n[rank0]:        (attn_norm): RMSNorm(768, eps=1e-06)\n[rank0]:        (attn): LaCTSWIGLULayer(\n[rank0]:          (qkv): Linear(in_features=768, out_features=2304, bias=False)\n[rank0]:          (o_proj): Linear(in_features=768, out_features=768, bias=False)\n[rank0]:          (rotary): RotaryEmbedding(dim=64, base=1000000.0, interleaved=False, pos_idx_in_fp32=True)\n[rank0]:          (w0): LowRankFastWeight()\n[rank0]:          (w2): LowRankFastWeight()\n[rank0]:          (lr_proj): Linear(in_features=768, out_features=36, bias=True)\n[rank0]:          (reg_lr_proj): Linear(in_features=768, out_features=36, bias=True)\n[rank0]:          (ttt_scale_proj): Linear(in_features=768, out_features=12, bias=True)\n[rank0]:          (ttt_norm): RMSNorm(64, eps=1e-05)\n[rank0]:          (momentum_proj): Sequential(\n[rank0]:            (0): Linear(in_features=768, out_features=12, bias=True)\n[rank0]:            (1): Sigmoid()\n[rank0]:          )\n[rank0]:        )\n[rank0]:        (mlp_norm): RMSNorm(768, eps=1e-06)\n[rank0]:        (mlp): GatedMLP(\n[rank0]:          (gate_proj): Linear(in_features=768, out_features=2048, bias=False)\n[rank0]:          (up_proj): Linear(in_features=768, out_features=2048, bias=False)\n[rank0]:          (down_proj): Linear(in_features=2048, out_features=768, bias=False)\n[rank0]:          (swiglu_linear): SwiGLULinear()\n[rank0]:        )\n[rank0]:      )\n[rank0]:    )\n[rank0]:    (norm): RMSNorm(768, eps=1e-06)\n[rank0]:  )\n[rank0]:  (lm_head): Linear(in_features=768, out_features=32000, bias=False)\n[rank0]:)\u001b[39m\n[rank0]:\n[rank0]:[titan] 2026-03-18 00:42:33,334 - root - WARNING - num_heads not found in model_config, defaulting to 1. \n[rank0]:[titan] 2026-03-18 00:42:33,334 - root - INFO - Applied selective activation checkpointing to the model\n[rank0]:[titan] 2026-03-18 00:42:33,352 - root - INFO - Compiling each block with torch.com
…
