…
kpoint.keep_latest_k 2 --metrics.log_freq 10 --profiling.profile_freq 2000\n",
      "wandb": null
    },
    {
      "job_id": "4470698",
      "name": "lact-S",
      "state": "RUNNING",
      "partition": "h200_cds",
      "nodes": "gh122",
      "gpus": "1",
      "elapsed": "8:14",
      "time_limit": "5:30:00",
      "submit_time": "2026-03-18T00:24:41",
      "gpu_avg_util": 96.5,
      "gpu_current": [
        {
          "util": 100.0,
          "mem_util": 55.0,
          "mem_used": 91235.0,
          "mem_total": 143771.0
        }
      ],
      "log_tail": "[rank0]:            (0): Linear(in_features=768, out_features=12, bias=True)\n[rank0]:            (1): Sigmoid()\n[rank0]:          )\n[rank0]:        )\n[rank0]:        (mlp_norm): RMSNorm(768, eps=1e-06)\n[rank0]:        (mlp): GatedMLP(\n[rank0]:          (gate_proj): Linear(in_features=768, out_features=2048, bias=False)\n[rank0]:          (up_proj): Linear(in_features=768, out_features=2048, bias=False)\n[rank0]:          (down_proj): Linear(in_features=2048, out_features=768, bias=False)\n[rank0]:          (swiglu_linear): SwiGLULinear()\n[rank0]:        )\n[rank0]:      )\n[rank0]:    )\n[rank0]:    (norm): RMSNorm(768, eps=1e-06)\n[rank0]:  )\n[rank0]:  (lm_head): Linear(in_features=768, out_features=32000, bias=False)\n[rank0]:)\u001b[39m\n[rank0]:\n[rank0]:[titan] 2026-03-18 00:47:58,993 - root - WARNING - num_heads not found in model_config, defaulting to 1. \n[rank0]:[titan] 2026-03-18 00:47:58,993 - root - INFO - Applied selective activation checkpointing to the model\n[rank0]:[titan] 2026-03-18 00:47:59,014 - root - INFO - Compiling each block with torch.com
…
int.keep_latest_k 2 --metrics.log_freq 10 --profiling.profile_freq 2000\n",
      "wandb": null
    },
    {
      "job_id": "4470693",
      "name": "aS-lact2MMW",
      "state": "RUNNING",
      "partition": "h200_cds",
      "nodes": "gh121",
      "gpus": "1",
      "elapsed": "11:17",
      "time_limit": "5:30:00",
      "submit_time": "2026-03-18T00:24:22",
      "gpu_avg_util": 33.3,
      "gpu_current": [
        {
          "util": 0.0,
          "mem_util": 0.0,
          "mem_used": 4.0,
          "mem_total": 143771.0
        }
      ],
      "log_tail": "[rank0]:          (lr_proj): Linear(in_features=768, out_features=36, bias=True)\n[rank0]:          (reg_lr_proj): Linear(in_features=768, out_features=36, bias=True)\n[rank0]:          (ttt_scale_proj): Linear(in_features=768, out_features=12, bias=True)\n[rank0]:          (ttt_norm): RMSNorm(64, eps=1e-05)\n[rank0]:          (momentum_proj): Sequential(\n[rank0]:            (0): Linear(in_features=768, out_features=12, bias=True)\n[rank0]:            (1): Sigmoid()\n[rank0]:          )\n[rank0]:        )\n[rank0]:        (mlp_norm): RMSNorm(768, eps=1e-06)\n[rank0]:        (mlp): GatedMLP(\n[rank0]:          (gate_proj): Linear(in_features=768, out_features=2048, bias=False)\n[rank0]:          (up_proj): Linear(in_features=768, out_features=2048, bias=False)\n[rank0]:          (down_proj): Linear(in_features=2048, out_features=768, bias=False)\n[rank0]:          (swiglu_linear): SwiGLULinear()\n[rank0]:        )\n[rank0]:      )\n[rank0]:    )\n[rank0]:    (norm): RMSNorm(768, eps=1e-06)\n[rank0]:  )\n[rank0]:  (lm_head): Linear(in_features=768, out_features=32000, bias=False)\n[rank0]:)\u001b[39m\n[rank0]:\n[rank0]:[titan] 2026-03-18 00:44:42,128 - root - WARNING - num_heads not found in model_config, defaulting to 1. \n[rank0]:[titan] 2026-03-18 00:44:42,128 - root - INFO - Applied selective activation checkpointing to the model\n[rank0]:[titan] 2026-03-18 00:44:42,147 - root - INFO - Compiling each block with torch.com
…
