…
      "state": "RUNNING",
      "partition": "h200_courant",
      "nodes": "gh121",
      "gpus": "1",
      "elapsed": "15:14",
      "time_limit": "2:30:00",
      "submit_time": "2026-03-17T12:55:12",
      "gpu_avg_util": 83.7,
      "gpu_current": [
        {
          "util": 97.0,
          "mem_util": 41.0,
          "mem_used": 89139.0,
          "mem_total": 143771.0
        }
      ],
      "log_tail": "[rank0]:    (layers): ModuleList(\n[rank0]:      (0-20): 21 x LaCTBlock(\n[rank0]:        (attn_norm): RMSNorm(1024, eps=1e-06)\n[rank0]:        (attn): LaCTSWIGLULayer(\n[rank0]:          (qkv): Linear(in_features=1024, out_features=3072, bias=False)\n[rank0]:          (o_proj): Linear(in_features=1024, out_features=1024, bias=False)\n[rank0]:          (rotary): RotaryEmbedding(dim=128, base=1000000.0, interleaved=False, pos_idx_in_fp32=True)\n[rank0]:          (w0): LowRankFastWeight()\n[rank0]:          (w2): LowRankFastWeight()\n[rank0]:          (lr_proj): Linear(in_features=1024, out_features=24, bias=True)\n[rank0]:          (reg_lr_proj): Linear(in_features=1024, out_features=24, bias=True)\n[rank0]:          (ttt_scale_proj): Linear(in_features=1024, out_features=8, bias=True)\n[rank0]:          (ttt_norm): RMSNorm(128, eps=1e-05)\n[rank0]:          (momentum_proj): Sequential(\n[rank0]:            (0): Linear(in_features=1024, out_features=8, bias=True)\n[rank0]:            (1): Sigmoid()\n[rank0]:          )\n[rank0]:        )\n[rank0]:        (mlp_norm): RMSNorm(1024, eps=1e-06)\n[rank0]:        (mlp): GatedMLP(\n[rank0]:          (gate_proj): Linear(in_features=1024, out_features=2816, bias=False)\n[rank0]:          (up_proj): Linear(in_features=1024, out_features=2816, bias=False)\n[rank0]:          (down_proj): Linear(in_features=2816, out_features=1024, bias=False)\n[rank0]:          (swiglu_linear): SwiGLULinear()\n[rank0]:        )\n[rank0]:      )\n[rank0]:    )\n[rank0]:    (norm): RMSNorm(1024, eps=1e-06)\n[rank0]:  )\n[rank0]:  (lm_head): Linear(in_features=1024, out_features=32000, bias=False)\n[rank0]:)\u001b[39m\n[rank0]:\n[rank0]:[titan] 2026-03-17 13:52:49,130 - root - WARNING - num_heads not found in model_config, defaulting to 1. \n[rank0]:[titan] 2026-03-17 13:52:49,130 - root - INFO - Applied selective activation checkpointing to the model\n[rank0]:[titan] 2026-03-17 13:52:49,157 - root - INFO - Compiling each block with torch.co
…
