…
itan] 2026-03-17 19:05:04,248 - custom_models.lact_model.modeling_lact - INFO - in PreTrainedModel initialize fast weights for LaCTSWIGLULayer\n[rank0]:[titan] 2026-03-17 19:05:04,251 - custom_models.lact_model.modeling_lact - INFO - in PreTrainedModel initialize fast weights for LaCTSWIGLULayer\n[rank0]:[titan] 2026-03-17 19:05:04,254 - custom_models.lact_model.modeling_lact - INFO - in PreTrainedModel initialize fast weights for LaCTSWIGLULayer\n[rank0]:[titan] 2026-03-17 19:05:04,259 - root - INFO - \u001b[34m\n[rank0]:LaCTForCausalLM(\n[rank0]:  (model): LaCTModel(\n[rank0]:    (embeddings): Embedding(32000, 1024)\n[rank0]:    (layers): ModuleList(\n[rank0]:      (0-20): 21 x LaCTBlock(\n[rank0]:        (attn_norm): RMSNorm(1024, eps=1e-06)\n[rank0]:        (attn): LaCTSWIGLULayer(\n[rank0]:          (qkv): Linear(in_features=1024, out_features=3072, bias=False)\n[rank0]:          (o_proj): Linear(in_features=1024, out_features=1024, bias=False)\n[rank0]:          (rotary): RotaryEmbedding(dim=128, base=1000000.0, interleaved=False, pos_idx_in_fp32=True)\n[rank0]:          (w0): LowRankFastWeight()\n[rank0]:          (w2): LowRankFastWeight()\n[rank0]:          (lr_proj): Linear(in_features=1024, out_features=24, bias=True)\n[rank0]:          (reg_lr_proj): Linear(in_features=1024, out_features=24, bias=True)\n[rank0]:          (ttt_scale_proj): Linear(in_features=1024, out_features=8, bias=True)\n[rank0]:          (ttt_norm): RMSNorm(128, eps=1e-05)\n[rank0]:          (momentum_proj): Sequential(\n[rank0]:            (0): Linear(in_features=1024, out_features=8, bias=True)\n[rank0]:            (1): Sigmoid()\n[rank0]:          )\n[rank0]:        )\n[rank0]:        (mlp_norm): RMSNorm(1024, eps=1e-06)\n[rank0]:        (mlp): GatedMLP(\n[rank0]:          (gate_proj): Linear(in_features=1024, out_features=2816, bias=False)\n[rank0]:          (up_proj): Linear(in_features=1024, out_features=2816, bias=False)\n[rank0]:          (down_proj): Linear(in_features=2816, out_features=1024, bias=False)\n[rank0]:          (swiglu_linear): SwiGLULinear()\n[rank0]:        )\n[rank0]:      )\n[rank0]:    )\n[rank0]:    (norm): RMSNorm(1024, eps=1e-06)\n[rank0]:  )\n[rank0]:  (lm_head): Linear(in_features=1024, out_features=32000, bias=False)\n[rank0]:)\u001b[39m\n[rank0]:\n[rank0]:[titan] 2026-03-17 19:05:04,260 - root - WARNING - num_heads not found in model_config, defaulting to 1. \n[rank0]:[titan] 2026-03-17 19:05:04,260 - root - INFO - Applied selective activation checkpointing to the model\n[rank0]:[titan] 2026-03-17 19:05:04,285 - root - INFO - Compiling each block with torch.co
…
itan] 2026-03-17 19:05:25,103 - custom_models.lact_model.modeling_lact - INFO - in PreTrainedModel initialize fast weights for LaCTSWIGLULayer\n[rank0]:[titan] 2026-03-17 19:05:25,106 - custom_models.lact_model.modeling_lact - INFO - in PreTrainedModel initialize fast weights for LaCTSWIGLULayer\n[rank0]:[titan] 2026-03-17 19:05:25,109 - custom_models.lact_model.modeling_lact - INFO - in PreTrainedModel initialize fast weights for LaCTSWIGLULayer\n[rank0]:[titan] 2026-03-17 19:05:25,114 - root - INFO - \u001b[34m\n[rank0]:LaCTForCausalLM(\n[rank0]:  (model): LaCTModel(\n[rank0]:    (embeddings): Embedding(32000, 1024)\n[rank0]:    (layers): ModuleList(\n[rank0]:      (0-20): 21 x LaCTBlock(\n[rank0]:        (attn_norm): RMSNorm(1024, eps=1e-06)\n[rank0]:        (attn): LaCTSWIGLULayer(\n[rank0]:          (qkv): Linear(in_features=1024, out_features=3072, bias=False)\n[rank0]:          (o_proj): Linear(in_features=1024, out_features=1024, bias=False)\n[rank0]:          (rotary): RotaryEmbedding(dim=128, base=1000000.0, interleaved=False, pos_idx_in_fp32=True)\n[rank0]:          (w0): LowRankFastWeight()\n[rank0]:          (w2): LowRankFastWeight()\n[rank0]:          (lr_proj): Linear(in_features=1024, out_features=24, bias=True)\n[rank0]:          (reg_lr_proj): Linear(in_features=1024, out_features=24, bias=True)\n[rank0]:          (ttt_scale_proj): Linear(in_features=1024, out_features=8, bias=True)\n[rank0]:          (ttt_norm): RMSNorm(128, eps=1e-05)\n[rank0]:          (momentum_proj): Sequential(\n[rank0]:            (0): Linear(in_features=1024, out_features=8, bias=True)\n[rank0]:            (1): Sigmoid()\n[rank0]:          )\n[rank0]:        )\n[rank0]:        (mlp_norm): RMSNorm(1024, eps=1e-06)\n[rank0]:        (mlp): GatedMLP(\n[rank0]:          (gate_proj): Linear(in_features=1024, out_features=2816, bias=False)\n[rank0]:          (up_proj): Linear(in_features=1024, out_features=2816, bias=False)\n[rank0]:          (down_proj): Linear(in_features=2816, out_features=1024, bias=False)\n[rank0]:          (swiglu_linear): SwiGLULinear()\n[rank0]:        )\n[rank0]:      )\n[rank0]:    )\n[rank0]:    (norm): RMSNorm(1024, eps=1e-06)\n[rank0]:  )\n[rank0]:  (lm_head): Linear(in_features=1024, out_features=32000, bias=False)\n[rank0]:)\u001b[39m\n[rank0]:\n[rank0]:[titan] 2026-03-17 19:05:25,114 - root - WARNING - num_heads not found in model_config, defaulting to 1. \n[rank0]:[titan] 2026-03-17 19:05:25,115 - root - INFO - Applied selective activation checkpointing to the model\n[rank0]:[titan] 2026-03-17 19:05:25,141 - root - INFO - Compiling each block with torch.co
…
itan] 2026-03-17 19:05:20,502 - custom_models.lact_model.modeling_lact - INFO - in PreTrainedModel initialize fast weights for LaCTSWIGLULayer\n[rank0]:[titan] 2026-03-17 19:05:20,505 - custom_models.lact_model.modeling_lact - INFO - in PreTrainedModel initialize fast weights for LaCTSWIGLULayer\n[rank0]:[titan] 2026-03-17 19:05:20,508 - custom_models.lact_model.modeling_lact - INFO - in PreTrainedModel initialize fast weights for LaCTSWIGLULayer\n[rank0]:[titan] 2026-03-17 19:05:20,512 - root - INFO - \u001b[34m\n[rank0]:LaCTForCausalLM(\n[rank0]:  (model): LaCTModel(\n[rank0]:    (embeddings): Embedding(32000, 1024)\n[rank0]:    (layers): ModuleList(\n[rank0]:      (0-20): 21 x LaCTBlock(\n[rank0]:        (attn_norm): RMSNorm(1024, eps=1e-06)\n[rank0]:        (attn): LaCTSWIGLULayer(\n[rank0]:          (qkv): Linear(in_features=1024, out_features=3072, bias=False)\n[rank0]:          (o_proj): Linear(in_features=1024, out_features=1024, bias=False)\n[rank0]:          (rotary): RotaryEmbedding(dim=128, base=1000000.0, interleaved=False, pos_idx_in_fp32=True)\n[rank0]:          (w0): LowRankFastWeight()\n[rank0]:          (w2): LowRankFastWeight()\n[rank0]:          (lr_proj): Linear(in_features=1024, out_features=24, bias=True)\n[rank0]:          (reg_lr_proj): Linear(in_features=1024, out_features=24, bias=True)\n[rank0]:          (ttt_scale_proj): Linear(in_features=1024, out_features=8, bias=True)\n[rank0]:          (ttt_norm): RMSNorm(128, eps=1e-05)\n[rank0]:          (momentum_proj): Sequential(\n[rank0]:            (0): Linear(in_features=1024, out_features=8, bias=True)\n[rank0]:            (1): Sigmoid()\n[rank0]:          )\n[rank0]:        )\n[rank0]:        (mlp_norm): RMSNorm(1024, eps=1e-06)\n[rank0]:        (mlp): GatedMLP(\n[rank0]:          (gate_proj): Linear(in_features=1024, out_features=2816, bias=False)\n[rank0]:          (up_proj): Linear(in_features=1024, out_features=2816, bias=False)\n[rank0]:          (down_proj): Linear(in_features=2816, out_features=1024, bias=False)\n[rank0]:          (swiglu_linear): SwiGLULinear()\n[rank0]:        )\n[rank0]:      )\n[rank0]:    )\n[rank0]:    (norm): RMSNorm(1024, eps=1e-06)\n[rank0]:  )\n[rank0]:  (lm_head): Linear(in_features=1024, out_features=32000, bias=False)\n[rank0]:)\u001b[39m\n[rank0]:\n[rank0]:[titan] 2026-03-17 19:05:20,513 - root - WARNING - num_heads not found in model_config, defaulting to 1. \n[rank0]:[titan] 2026-03-17 19:05:20,513 - root - INFO - Applied selective activation checkpointing to the model\n[rank0]:[titan] 2026-03-17 19:05:20,539 - root - INFO - Compiling each block with torch.co
…
itan] 2026-03-17 19:05:05,604 - custom_models.lact_model.modeling_lact - INFO - in PreTrainedModel initialize fast weights for LaCTSWIGLULayer\n[rank0]:[titan] 2026-03-17 19:05:05,609 - custom_models.lact_model.modeling_lact - INFO - in PreTrainedModel initialize fast weights for LaCTSWIGLULayer\n[rank0]:[titan] 2026-03-17 19:05:05,613 - custom_models.lact_model.modeling_lact - INFO - in PreTrainedModel initialize fast weights for LaCTSWIGLULayer\n[rank0]:[titan] 2026-03-17 19:05:05,619 - root - INFO - \u001b[34m\n[rank0]:LaCTForCausalLM(\n[rank0]:  (model): LaCTModel(\n[rank0]:    (embeddings): Embedding(32000, 1024)\n[rank0]:    (layers): ModuleList(\n[rank0]:      (0-20): 21 x LaCTBlock(\n[rank0]:        (attn_norm): RMSNorm(1024, eps=1e-06)\n[rank0]:        (attn): LaCTSWIGLULayer(\n[rank0]:          (qkv): Linear(in_features=1024, out_features=3072, bias=False)\n[rank0]:          (o_proj): Linear(in_features=1024, out_features=1024, bias=False)\n[rank0]:          (rotary): RotaryEmbedding(dim=128, base=1000000.0, interleaved=False, pos_idx_in_fp32=True)\n[rank0]:          (w0): LowRankFastWeight()\n[rank0]:          (w2): LowRankFastWeight()\n[rank0]:          (lr_proj): Linear(in_features=1024, out_features=24, bias=True)\n[rank0]:          (reg_lr_proj): Linear(in_features=1024, out_features=24, bias=True)\n[rank0]:          (ttt_scale_proj): Linear(in_features=1024, out_features=8, bias=True)\n[rank0]:          (ttt_norm): RMSNorm(128, eps=1e-05)\n[rank0]:          (momentum_proj): Sequential(\n[rank0]:            (0): Linear(in_features=1024, out_features=8, bias=True)\n[rank0]:            (1): Sigmoid()\n[rank0]:          )\n[rank0]:        )\n[rank0]:        (mlp_norm): RMSNorm(1024, eps=1e-06)\n[rank0]:        (mlp): GatedMLP(\n[rank0]:          (gate_proj): Linear(in_features=1024, out_features=2816, bias=False)\n[rank0]:          (up_proj): Linear(in_features=1024, out_features=2816, bias=False)\n[rank0]:          (down_proj): Linear(in_features=2816, out_features=1024, bias=False)\n[rank0]:          (swiglu_linear): SwiGLULinear()\n[rank0]:        )\n[rank0]:      )\n[rank0]:    )\n[rank0]:    (norm): RMSNorm(1024, eps=1e-06)\n[rank0]:  )\n[rank0]:  (lm_head): Linear(in_features=1024, out_features=32000, bias=False)\n[rank0]:)\u001b[39m\n[rank0]:\n[rank0]:[titan] 2026-03-17 19:05:05,620 - root - WARNING - num_heads not found in model_config, defaulting to 1. \n[rank0]:[titan] 2026-03-17 19:05:05,620 - root - INFO - Applied selective activation checkpointing to the model\n[rank0]:[titan] 2026-03-17 19:05:05,654 - root - INFO - Compiling each block with torch.co
…
itan] 2026-03-17 19:05:33,547 - custom_models.lact_model.modeling_lact - INFO - in PreTrainedModel initialize fast weights for LaCTSWIGLULayer\n[rank0]:[titan] 2026-03-17 19:05:33,550 - custom_models.lact_model.modeling_lact - INFO - in PreTrainedModel initialize fast weights for LaCTSWIGLULayer\n[rank0]:[titan] 2026-03-17 19:05:33,553 - custom_models.lact_model.modeling_lact - INFO - in PreTrainedModel initialize fast weights for LaCTSWIGLULayer\n[rank0]:[titan] 2026-03-17 19:05:33,558 - root - INFO - \u001b[34m\n[rank0]:LaCTForCausalLM(\n[rank0]:  (model): LaCTModel(\n[rank0]:    (embeddings): Embedding(32000, 1024)\n[rank0]:    (layers): ModuleList(\n[rank0]:      (0-20): 21 x LaCTBlock(\n[rank0]:        (attn_norm): RMSNorm(1024, eps=1e-06)\n[rank0]:        (attn): LaCTSWIGLULayer(\n[rank0]:          (qkv): Linear(in_features=1024, out_features=3072, bias=False)\n[rank0]:          (o_proj): Linear(in_features=1024, out_features=1024, bias=False)\n[rank0]:          (rotary): RotaryEmbedding(dim=128, base=1000000.0, interleaved=False, pos_idx_in_fp32=True)\n[rank0]:          (w0): LowRankFastWeight()\n[rank0]:          (w2): LowRankFastWeight()\n[rank0]:          (lr_proj): Linear(in_features=1024, out_features=24, bias=True)\n[rank0]:          (reg_lr_proj): Linear(in_features=1024, out_features=24, bias=True)\n[rank0]:          (ttt_scale_proj): Linear(in_features=1024, out_features=8, bias=True)\n[rank0]:          (ttt_norm): RMSNorm(128, eps=1e-05)\n[rank0]:          (momentum_proj): Sequential(\n[rank0]:            (0): Linear(in_features=1024, out_features=8, bias=True)\n[rank0]:            (1): Sigmoid()\n[rank0]:          )\n[rank0]:        )\n[rank0]:        (mlp_norm): RMSNorm(1024, eps=1e-06)\n[rank0]:        (mlp): GatedMLP(\n[rank0]:          (gate_proj): Linear(in_features=1024, out_features=2816, bias=False)\n[rank0]:          (up_proj): Linear(in_features=1024, out_features=2816, bias=False)\n[rank0]:          (down_proj): Linear(in_features=2816, out_features=1024, bias=False)\n[rank0]:          (swiglu_linear): SwiGLULinear()\n[rank0]:        )\n[rank0]:      )\n[rank0]:    )\n[rank0]:    (norm): RMSNorm(1024, eps=1e-06)\n[rank0]:  )\n[rank0]:  (lm_head): Linear(in_features=1024, out_features=32000, bias=False)\n[rank0]:)\u001b[39m\n[rank0]:\n[rank0]:[titan] 2026-03-17 19:05:33,558 - root - WARNING - num_heads not found in model_config, defaulting to 1. \n[rank0]:[titan] 2026-03-17 19:05:33,558 - root - INFO - Applied selective activation checkpointing to the model\n[rank0]:[titan] 2026-03-17 19:05:33,587 - root - INFO - Compiling each block with torch.co
…
